…
embeddings=False, sent_loss=True, classifier_activation_fn='gelu', normalize_embedding=False, adaptive_input=False, classifier_in_dim=128)
2026-01-18 00:22:47 | INFO | fairseq.tasks.long_range_arena | Loading dataset from cache: /workspace/lra_saved/pathfinder_valid_cache_ec3e2450.pt
2026-01-18 00:22:48 | INFO | fairseq_cli.train | LRAModel(
  (encoder): LRAEncoder(
    (encoder): PrefixformerLRAEncoder(
      (dropout_module): FairseqDropout(p=0.1)
      (embed_tokens): RealNumberEmbedding()
      (embed_positions): SinusoidalPositionalEmbedding()
      (pfcl): Prefix_Layer(
        (linear_w): Linear(in_features=128, out_features=1, bias=True)
        (main_conv): Sequential(
          (0): Conv1d(128, 128, kernel_size=(6,), stride=(1,), padding=same)
          (1): Dropout(p=0.1, inplace=False)
        )
        (linear_fusion_attout): Linear(in_features=384, out_features=128, bias=True)
        (fusion_norm): LayerNorm((128,), eps=1e-05, elementwise_affine=True)
      )
      (layers): LayerDropModuleList(
        (0-5): 6 x PrefixformerSentenceEncoderLayer(
          (dropout_module): FairseqDropout(p=0.1)
          (activation_dropout_module): FairseqDropout(p=0.0)
          (self_attn): DynamicAdapterMultiheadAttention(
            (output_linear): Linear(in_features=128, out_features=128, bias=True)
            (att_dropout): Dropout(p=0.1, inplace=False)
          )
          (self_attn_layer_norm): SequenceNorm(
            (norm): BatchNorm1d(128, eps=1e-05, momentum=0.1, affine=True, track_running_stats=True)
          )
          (fc1): Linear(in_features=128, out_features=128, bias=True)
          (final_layer_norm): SequenceNorm(
            (norm): BatchNorm1d(128, eps=1e-05, momentum=0.1, affine=True, track_running_stats=True)
          )
        )
      )
      (emb_layer_norm): SequenceNorm(
        (norm): BatchNorm1d(128, eps=1e-05, momentum=0.1, affine=True, track_running_stats=True)
      )
    )
  )
  (dropout_module): FairseqDropout(p=0.1)
  (classifier): ModuleList(
    (0): Sequential(
      (0): Linear(in_features=128, out_features=256, bias=True)
      (1): FairseqDropout(p=0.1)
    )
  )
  (sentence_projection_layer): Linear(in_features=256, out_features=2, bias=False)
)
2026-01-18 00:22:48 | INFO | fairseq_cli.train | task: lra-image (LRAImageTask)
2026-01-18 00:22:48 | INFO | fairseq_cli.train | model: prefixformer_lra_pf32 (LRAModel)
2026-01-18 00:22:48 | INFO | fairseq_cli.train | criterion: lra_cross_entropy (LRACrossEntropyCriterion)
2026-01-18 00:22:48 | INFO | fairseq_cli.train | num. model params: 384909 (num. trained: 384909)
…
